trained_models/pre_DRNL4x_dual_model.pt (torch_old, 9848 bytes, 4 tensors)

dual_module.0.0.weight f4 [20, 3, 3, 3]
0	0xbe9a58aa	-0.3014577
1	0xbe9ff3c0	-0.31240654
2	0xbe87dc4d	-0.26535264
3	0x3e051521	0.12996341
4	0x3e4fff0d	0.20312138
5	0x3dd1bd84	0.10241225
6	0xbdb402f8	-0.08789629
7	0x3dd08d5c	0.10183212
8	0xbe3751c8	-0.17902291
9	0xbe4541e1	-0.19263412
10	0xbd82e87c	-0.06391999
11	0x3d017621	0.031606797
12	0xbd66d6b3	-0.056357097
13	0x3e067087	0.13128863
14	0xbdc3ace5	-0.095544614
15	0xbd804afe	-0.062643036
16	0xbcda02d2	-0.026612673
17	0xbd17b9af	-0.037042316
18	0x3de1eaae	0.1103109
19	0xbe029639	-0.12752618
20	0xbda08cdc	-0.07839367
21	0x3bd630f8	0.0065365992
22	0x3dd0a852	0.101883546
23	0xbdb7364f	-0.089459054
24	0xbd949651	-0.07255233
25	0x3e5a51e4	0.21320301
26	0xbc79b47c	-0.015240785
27	0x3d7d34f2	0.06181807
28	0x3ca79583	0.020457035
29	0xbe507104	-0.20355612
30	0xbc1fc3c7	-0.009751267
31	0xbe439052	-0.19098023
32	0xbdc70726	-0.0971816
33	0xbd036f22	-0.032088406
34	0xbe997d75	-0.2997853
35	0xbe30ac35	-0.17253192
36	0x3ceb8863	0.028751558
37	0xbd0d9ac6	-0.03457143
38	0x3d930548	0.07178742
39	0xbe4c1776	-0.19930825
40	0xbe09914d	-0.13434334
41	0xbda65a40	-0.081226826
42	0x3cbab14c	0.02278962
43	0xbe5c3476	-0.21504387
44	0xbe1781ff	-0.14795683
45	0xbe23b389	-0.15986456
46	0xbdb5ccdf	-0.08876967
47	0x3dcbf275	0.099583544
48	0xbcb1ddcc	-0.021712206
49	0xbd7af614	-0.061269835
50	0xbd86d82b	-0.065841995
51	0x3e4ed47f	0.20198248
52	0x3dce376d	0.100691654
53	0x3c86e58f	0.016466884
54	0x3d703023	0.058639657
55	0xbe1b285b	-0.15152113
56	0xbdf84c15	-0.121238865
57	0x3d9fca35	0.0780224
58	0x3e362ea4	0.1779123
59	0xbdc4f783	-0.096175216
60	0x3daf9b41	0.08574534
61	0x3ce61c98	0.028089806
62	0x3dae671f	0.085157625
63	0xbe22b236	-0.15888295
64	0xbd82a7c2	-0.063796535
65	0x3dfce2e8	0.123479664
66	0xbcdf83f7	-0.027284605
67	0x3e4dc281	0.20093729
68	0xbdc45afe	-0.09587668
69	0xbd348371	-0.044070665
70	0x3e4e0e3c	0.20122617
71	0x3e2500b8	0.16113555
72	0xbd2e8c66	-0.042614363
73	0x3e39fb4d	0.1816227
74	0x3daa2593	0.08307948
75	0x3dd38c69	0.103295155
76	0xbda31d51	-0.07964576
77	0x3e087e24	0.13329369
78	0x3d9b2fe4	0.07577494
79	0x3d925cfb	0.07146641
80	0xbccc6c8b	-0.024954101
81	0xbd00da03	-0.031457912
82	0x3d8d8f8c	0.06912145
83	0x3e062b09	0.13102354
84	0x3e059cf3	0.13048153
85	0xbd872d91	-0.06600488
86	0xbe2304c5	-0.15919788
87	0x3c474d77	0.012164465
88	0x3d4bd990	0.04976803
89	0xbdafc3a6	-0.08582239
90	0xbdb11ef5	-0.08648483
91	0xbda897dd	-0.082320906
92	0x3d795023	0.06086744
93	0x3af5a205	0.0018740302
94	0x3ccada82	0.024762396
95	0xbdc4cae1	-0.096090086
96	0x3d9548a4	0.07289246
97	0xbd067523	-0.032826554
98	0x3e173269	0.14765324
99	0xbd865290	-0.06558716
100	0x3e4c50de	0.19952723
101	0xbb5ec0e0	-0.0033989474
102	0x3e2eec15	0.17082246
103	0x3e4d79c8	0.20065987
104	0xbc8a51c6	-0.016884696
105	0x3ddd3e1d	0.10802863
106	0x3e2ac2cd	0.16675873
107	0xbca0f9d0	-0.01965037
108	0x3dfec214	0.12439361
109	0x3de654f1	0.1124667
110	0x3e5d055d	0.21584077
111	0x3e800ec1	0.25011256
112	0x3dbe7f5f	0.09301638
113	0x3cff47b8	0.031162128
114	0x3dde44d3	0.10852971
115	0x3df1bcbf	0.118035786
116	0xbd4c6a32	-0.049905963
117	0x3d1fe0f7	0.039032903
118	0x3c3234a7	0.010876811
119	0xbdd9449a	-0.10608788
120	0xbe84d2b5	-0.25942007
121	0x3e532255	0.20618565
122	0x3df671f3	0.12033453
123	0xbe194a6e	-0.14969799
124	0xbd28b838	-0.04119131
125	0xbd2183a0	-0.039432168
126	0xbd05f414	-0.032703474
127	0xbc3b5b52	-0.011435347
128	0x3e0c8737	0.13723455
129	0x3de980b8	0.11401504
130	0xbd8432a0	-0.064549685
131	0x3e65c8e0	0.22439909
132	0x3c9fe3dd	0.019517833
133	0x3dd1995d	0.1023433
134	0xbda1a726	-0.07893209
135	0x3dd41e8a	0.10357387
136	0xbd1135d7	-0.035451736
137	0xbd543e0f	-0.051816996
138	0xbd92e5f3	-0.071727656
139	0x3d3dbee8	0.04632464
140	0xbd56720f	-0.05235487
141	0xbdba7eaa	-0.091061905
142	0xbccafe2e	-0.024779405
143	0x3e18493b	0.14871685
144	0xbd6cfd58	-0.057858795
145	0x3dba3b02	0.09093286
146	0xbc1efa0e	-0.009703172
147	0x3d256650	0.040380776
148	0x3e71697d	0.23575397
149	0x3e5845cc	0.21120375
150	0x3e852634	0.2600571
151	0xbcec8a3c	-0.028874509
152	0xbcf90c86	-0.03040148
153	0xbe26c84b	-0.16287343
154	0x3e244c69	0.16044773
155	0x3e565575	0.20931037
156	0x3e2dafbe	0.16961572
157	0x3ea0d28b	0.31410632
158	0x3d2a7f3f	0.041625258
159	0x3c51e8af	0.012811824
160	0x3ce068de	0.027393755
161	0x3e56955f	0.20955418
162	0x3cd72aa4	0.02626545
163	0xbe251ccf	-0.16124271
164	0xbc4e7e32	-0.0126033295
165	0xbe964d75	-0.2935597
166	0xbe7a62be	-0.2445173
167	0xbdc1cb1d	-0.09462569
168	0xbe7de0ac	-0.24792737
169	0xbe7bb074	-0.2457903
170	0xbe805253	-0.25062808
171	0x3deeb910	0.116563916
172	0x3ca8763a	0.020564187
173	0x3e11be46	0.1423274
174	0xbd841d62	-0.06450917
175	0x3db04786	0.08607392
176	0xbd54c64b	-0.05194692
177	0x3dbf335f	0.0933597
178	0xbe4daf5f	-0.2008643
179	0x3d18379a	0.0371624
180	0x3d3607d5	0.044441063
181	0xbdb65a48	-0.089039385
182	0x3dbfcc0f	0.09365093
183	0xbdb751b7	-0.08951133
184	0xbbc495d5	-0.0059993067
185	0xbe8f47b5	-0.27984396
186	0x3e16f967	0.14743577
187	0xbe3b6ea7	-0.1830393
188	0x3b879531	0.004137658
189	0x3df3a584	0.11896804
190	0x3d89e625	0.0673335
191	0xbc3279d3	-0.010893303
192	0x3e080d10	0.13286233
193	0x3e18ed8f	0.14934371
194	0x3ce925f7	0.028460486
195	0xbe2c3a26	-0.16819057
196	0xbda01450	-0.07816374
197	0xbdf9fe9e	-0.122067675
198	0x3c868042	0.01641858
199	0xbc83fed9	-0.016112732
200	0xbce4d9aa	-0.027935822
201	0x3e3ffce1	0.1874881
202	0xbdcef80f	-0.10105907
203	0xbce6c2df	-0.028169094
204	0x3db639b4	0.08897725
205	0x3d8dac49	0.069176264
206	0x3c82b6ec	0.015956365
207	0xbdb4d39b	-0.08829423
208	0xbdf016c4	-0.11723092
209	0x3e440b12	0.19144848
210	0x3bbc5f38	0.0057486556
211	0x3cfe6491	0.031053813
212	0x3c6de936	0.014520934
213	0x3e4e004c	0.20117301
214	0x3e479b43	0.19492821
215	0x3de64485	0.11243538
216	0xbd1755aa	-0.03694693
217	0x3bb7ecce	0.005612946
218	0xbc20bde8	-0.009810902
219	0x3d21a304	0.039462104
220	0xbcdc3968	-0.026882842
221	0xbe2a9e1a	-0.16661873
222	0x3e5506af	0.20803331
223	0xbd67e289	-0.056612525
224	0x3d17d331	0.037066642
225	0x3e530464	0.20607144
226	0x3de21921	0.11039949
227	0x3e0f0090	0.13965058
228	0xbdd14339	-0.102179
229	0xbd12cd11	-0.035840098
230	0x3db73c49	0.08947045
231	0xbe325256	-0.17414221
232	0xbddc6988	-0.10762316
233	0x3d836fdc	0.0641782
234	0x3e10e1a8	0.14148581
235	0xbc90a7ef	-0.017658202
236	0xbdfd93dc	-0.123817176
237	0x3e0c56cf	0.1370499
238	0xbae928d7	-0.001778866
239	0x3e58ff32	0.211911
240	0x3e240838	0.1601876
241	0x3e5d00ba	0.21582308
242	0x3e4a61b6	0.19763836
243	0xbe173c2a	-0.14769045
244	0x3d977504	0.07395366
245	0xbe589f08	-0.21154416
246	0xbe3410de	-0.1758456
247	0xbe84014c	-0.2578224
248	0xbd6f2283	-0.058382522
249	0xbd7665af	-0.060155567
250	0xbd11ce9b	-0.035597425
251	0xbe658589	-0.22414221
252	0x3bb4c15a	0.0055162134
253	0xbdff4dbd	-0.12465999
254	0xbdcc5a22	-0.09978129
255	0xbd13cf3c	-0.036086306

dual_module.1.weight f4 [3, 20, 3, 3]
0	0x3c4ca9b2	0.01249163
1	0xbcd6fe96	-0.026244443
2	0xbc886771	-0.016650887
3	0xbd0866b2	-0.033301063
4	0x3e3c12f9	0.18366612
5	0x3e140246	0.14453992
6	0x3dd6a5d9	0.10480852
7	0xbe53f993	-0.20700674
8	0xbcf10095	-0.029419223
9	0xbcb3f784	-0.02196861
10	0xbdbf48dd	-0.093400694
11	0x3cb7c794	0.022434033
12	0xbd2104ce	-0.039311223
13	0xbe54a3c8	-0.20765603
14	0xbdddfc1d	-0.108391024
15	0x3cce5f12	0.025191817
16	0xbdb17b38	-0.0866608
17	0xbc5248d7	-0.012834749
18	0x3ba0f274	0.004911715
19	0x3c73fdcc	0.014892053
20	0x3c6b271f	0.014352589
21	0x3ce8f23f	0.028435824
22	0x3dbc81b0	0.092044234
23	0x3e12b11f	0.14325379
24	0x3d782908	0.060586005
25	0xbd949632	-0.0725521
26	0x3d8b6b97	0.068076305
27	0xbccfeb18	-0.025380656
28	0x3c65cfc3	0.014026585
29	0x3c6c95f7	0.014440051
30	0xbda75a6b	-0.08171543
31	0xbd9989fa	-0.0749702
32	0x3d7d6c10	0.061870635
33	0xbd4a6db2	-0.04942102
34	0x3d13ad3b	0.036053877
35	0xbcec39cf	-0.028836159
36	0x3d3cebd4	0.04612334
37	0xbd233502	-0.039845474
38	0x3d01d1ba	0.03169415
39	0xbd5ea519	-0.05435667
40	0x3de9c171	0.11413849
41	0x3dbe7dc7	0.09301334
42	0xbcbaa1c0	-0.022782207
43	0x3db98bf5	0.09059898
44	0xbd930f2b	-0.071806274
45	0xbc3c8781	-0.011506916
46	0xbcd73160	-0.026268661
47	0xbbf6e9be	-0.0075351885
48	0x3c1f2e13	0.009715575
49	0xbd1b8048	-0.037964135
50	0xbde1d7cf	-0.1102749
51	0x3c4b6dee	0.012416346
52	0xbcd4b0b3	-0.025963163
53	0x3c804695	0.015658656
54	0xbd6455e1	-0.055745963
55	0xbdda846c	-0.10669789
56	0x3c015bc5	0.007895415
57	0xbd946eb6	-0.07247679
58	0xbe9f5b97	-0.31124565
59	0xbe7449dd	-0.23856302
60	0xbd01b1ca	-0.031663693
61	0xbd948948	-0.07252747
62	0x3d8bcced	0.06826196
63	0xbd499ece	-0.049223714
64	0xbdb78a55	-0.089619316
65	0xbe1c1e76	-0.15245995
66	0xbccae1bc	-0.024765842
67	0xbdc2364c	-0.094830126
68	0x3ce0f794	0.027461804
69	0x3cf63e0b	0.030058881
70	0x3c91ba72	0.0177891
71	0x3dcf4b72	0.10121812
72	0xbb850ca0	-0.004060343
73	0x3c44410b	0.011978398
74	0xbd142548	-0.036168367
75	0x3d520cc7	0.051281717
76	0xbdf43896	-0.119248554
77	0xbaf2d306	-0.0018526025
78	0xbc27d87e	-0.010244487
79	0xbdbdf860	-0.092758894
80	0xbd4a21bf	-0.04934859
81	0x3d14dbc5	0.0363424
82	0xbc8bb8ed	-0.017055953
83	0x3b2e4373	0.0026590496
84	0xbd8719b4	-0.06596699
85	0xbe775337	-0.24152838
86	0xbb7efc0f	-0.0038907563
87	0x3c0ff569	0.008786538
88	0xbd2f2007	-0.042755153
89	0xbc93fd60	-0.018065155
90	0x3db71532	0.089395896
91	0xbd2df207	-0.042467143
92	0xbc13d74e	-0.009023501
93	0xbd88b500	-0.06675148
94	0x39840c27	0.00025186056
95	0x3d3f8474	0.046757177
96	0xbdb913c8	-0.09036976
97	0xbe092f72	-0.13397005
98	0xbcbbd008	-0.022926345
99	0x3c8d96c0	0.017283797
100	0x3c664e30	0.014056727
101	0x3c620951	0.0137961665
102	0x3dc4c6aa	0.09608205
103	0xbdc940ec	-0.09826836
104	0x3c745b77	0.014914385
105	0x3d0b71bb	0.03404401
106	0xbdd67f7e	-0.10473536
107	0x3d1a9f9b	0.037749868
108	0x3c795719	0.01521852
109	0x3d27d6f9	0.0409765
110	0x3cdf1a63	0.027234262
111	0x3caa0cbb	0.020758023
112	0xbe76f31f	-0.24116181
113	0xbe0b0f87	-0.13580142
114	0x3d7dc58e	0.06195598
115	0xbd9adeb8	-0.075620115
116	0xbc0f8675	-0.008760084
117	0x3d44f18e	0.048081927
118	0xbb130b69	-0.002243722
119	0x3c4847ed	0.01222418
120	0x3d0f79a7	0.035028126
121	0x3d02a1d3	0.03189261
122	0xbdacdd67	-0.08440667
123	0xbd802d5b	-0.06258651
124	0x3d96cfed	0.073638774
125	0xbd265c63	-0.04061545
126	0x3db714e1	0.08939529
127	0xbd6e89ad	-0.058236767
128	0x3d60e75d	0.054908145
129	0x3d4b540c	0.0496407
130	0xbe1c99b5	-0.1529301
131	0xbdcd97f0	-0.100387454
132	0x3cf1cbf8	0.029516205
133	0xbdc03c91	-0.09386552
134	0x3d21b646	0.03948047
135	0xbaf7e31a	-0.0018912286
136	0x3d92bdc0	0.07165098
137	0xbc083639	-0.008313709
138	0xbc11ea73	-0.008905995
139	0x3defcf23	0.1170943
140	0xba0a7b12	-0.0005282621
141	0xbbbd6d88	-0.0057808794
142	0xbd9ff6f5	-0.07810775
143	0xbd172e76	-0.036909543
144	0x3a9b5d9a	0.0011853457
145	0x3cc2506e	0.023719992
146	0xbbb77162	-0.005598233
147	0xbd650bc1	-0.055919413
148	0x3da65a0c	0.08122644
149	0xbd4e331a	-0.050341703
150	0xbd804142	-0.06262447
151	0x3dd51510	0.10404408
152	0x3bc851a2	0.006113247
153	0x3d8cd91c	0.06877348
154	0xbdaf46c1	-0.08558417
155	0x39c7bd8c	0.0003809746
156	0x3d0ccf84	0.03437759
157	0xbdf221b0	-0.11822832
158	0x3d4d8086	0.050171398
159	0x3cc14fce	0.023597624
160	0xbd23144f	-0.03981429
161	0x3c872b6c	0.016500197
162	0xbcd38c32	-0.025823686
163	0x3cc689cd	0.02423563
164	0x3cc68ff5	0.024238566
165	0x3d189555	0.03725179
166	0x3e5b65f2	0.21425608
167	0xbd8f849a	-0.070077136
168	0x3c9a77b3	0.018855905
169	0x3ce4f99f	0.02795106
170	0x3cfb5ab7	0.030682905
171	0x3ccbc341	0.024873378
172	0xbc9d04e4	-0.019167371
173	0x3cb600a9	0.022217112
174	0x3d6ad7f2	0.057334848
175	0x3db79ea5	0.08965806
176	0x3dc196cf	0.094525926
177	0x3d51b082	0.05119372
178	0xbd72686b	-0.059181612
179	0xbd58f7ec	-0.05297081
180	0x3c9f8c83	0.01947618
181	0xbd79107f	-0.060806748
182	0xbba5b3b3	-0.005056822
183	0x3bf4d1ab	0.0074712834
184	0x3dde2973	0.108477496
185	0x3dcc75fd	0.09983442
186	0x3c8f160e	0.017466571
187	0x3e05943e	0.13044831
188	0xbc22fd4b	-0.009948085
189	0x3c8c97f5	0.017162303
190	0x3d259c42	0.040432222
191	0x3d9c7736	0.07639925
192	0xbd4c5c1f	-0.04989254
193	0xbe1f9582	-0.15584376
194	0xbd1630fc	-0.03666781
195	0x3d8d5708	0.069013655
196	0xbdc36de2	-0.09542443
197	0xbd76ba6d	-0.060236383
198	0x3b863ef9	0.0040968624
199	0x3c87f76a	0.016597468
200	0x3d18faad	0.037348438
201	0x3c91126a	0.017708976
202	0x3e2649f7	0.16239153
203	0x3d27105b	0.040787082
204	0xbd0d2c45	-0.034466047
205	0xbcb8db45	-0.022565493
206	0x3d17a21d	0.037019838
207	0x3bad4b7c	0.0052885395
208	0x3d2a03b9	0.041507456
209	0xbc7906c6	-0.015199369
210	0xbd0b70c9	-0.034043107
211	0xbc93be04	-0.018034942
212	0x3c6a1f35	0.014289667
213	0xbd3d56e6	-0.04622545
214	0xbcf15e57	-0.02946393
215	0xbcfabee9	-0.030608611
216	0xbc6cc604	-0.0144515075
217	0xbd5b265c	-0.05350338
218	0xbceb8247	-0.028748645
219	0xbc976ad7	-0.018483562
220	0x3b5d770b	0.003379288
221	0xbe1c8343	-0.15284447
222	0xbbbe77ad	-0.0058126063
223	0xbd6681b8	-0.056276053
224	0x3cb0e3ec	0.021593057
225	0xbc992848	-0.018695965
226	0xbd23cafe	-0.03998851
227	0xbc96e64a	-0.018420357
228	0x3bc0c34b	0.0058826557
229	0x3e0c58f1	0.13705803
230	0x3d8a2c03	0.06746676
231	0xbc2253b3	-0.009907651
232	0x3da8b15c	0.082369536
233	0x3ab33f38	0.0013675457
234	0xbd5e344e	-0.0542491
235	0xbb8c9fd7	-0.0042915153
236	0x3d3b272d	0.045691658
237	0x3dfafec6	0.122556254
238	0xbd49cd29	-0.04926792
239	0x3d07d2ac	0.033159897
240	0xbca7c7d3	-0.020481026
241	0x3d7ad5e8	0.061239153
242	0xbc293b83	-0.01032913
243	0x3bdf9e5e	0.0068242988
244	0x3c326d2a	0.010890285
245	0xbd313289	-0.043261085
246	0x3d1ad17d	0.03779744
247	0xbd934a8c	-0.07191953
248	0x3e10c276	0.14136681
249	0x3d3b3212	0.045702048
250	0xbdb03d3d	-0.0860543
251	0x3c8d1e6c	0.01722642
252	0x39255717	0.0001576807
253	0x3c8a6025	0.016891548
254	0xbc90abdc	-0.017660074
255	0x3d88f33a	0.06687017

dual_module.0.0.weight f4 [20, 3, 3, 3]
0	0x3db4e8f6	0.08833496
1	0xbdb9b78b	-0.09068211
2	0x3e607ebc	0.21923345
3	0x3cb270ab	0.02178224
4	0xbc1e511a	-0.009662891
5	0x3e54119d	0.20709844
6	0xbc9de4ca	-0.019274134
7	0x3e8e7b4e	0.2782845
8	0x3d8717e7	0.06596356
9	0x3cdc1219	0.026864098
10	0xbe0d6635	-0.1380852
11	0xbe0d8a8c	-0.13822383
12	0xbddcfe56	-0.10790698
13	0x3ddf367e	0.108990654
14	0x3decac32	0.11556281
15	0xbe04bef5	-0.1296347
16	0x3d1aa453	0.037754368
17	0x3e674be5	0.22587545
18	0x3e403d59	0.18773402
19	0xbd8734bf	-0.066018574
20	0x3d80556d	0.06266294
21	0xbdc23020	-0.09481835
22	0x3de27496	0.11057393
23	0x3c384df4	0.011249054
24	0xbdd25009	-0.10269172
25	0xbe11a44e	-0.14222834
26	0x3da31dca	0.07964666
27	0xbd787728	-0.06066051
28	0x3d032191	0.032014433
29	0xbc9a1f4b	-0.01881375
30	0xbe3b392a	-0.18283525
31	0xbda61b1d	-0.0811064
32	0xbe1efbf8	-0.15525806
33	0xbe0cc4f2	-0.13747004
34	0xbd7db4ab	-0.061939877
35	0x3e0196a7	0.12655126
36	0xbe07785c	-0.13229507
37	0x3de6fd95	0.11278836
38	0xbcd2ff3e	-0.025756475
39	0xbe1c447d	-0.15260501
40	0x3c7039e0	0.014662236
41	0x3cf4f32a	0.029901106
42	0x3d9222d0	0.07135546
43	0x39743e0c	0.00023292768
44	0xbdfafdc5	-0.12255434
45	0xbd764403	-0.060123455
46	0x3dc4cf58	0.0960986
47	0xbdfb6ad7	-0.122762375
48	0xbe5559db	-0.20835058
49	0xbe7bc40e	-0.24586508
50	0xbe00ace3	-0.12565951
51	0xbe528463	-0.20558314
52	0x3c1ee81d	0.009698895
53	0xbe7108a3	-0.23538451
54	0x3d8a88c4	0.06764367
55	0x3d2c8006	0.04211428
56	0xbe3fb097	-0.18719707
57	0x3e047482	0.12935069
58	0x3e103e64	0.140863
59	0x3e010a40	0.12601566
60	0x3d951b0e	0.07280551
61	0xbd96c29a	-0.07361336
62	0x3d0e3a00	0.03472328
63	0xbe267194	-0.16254264
64	0x3e438141	0.19092275
65	0x3dd5cb07	0.10439115
66	0xbd862201	-0.065494545
67	0x3e6073e7	0.21919213
68	0x3e0aaada	0.13541737
69	0xbe0f3eee	-0.1398885
70	0x3e32cd18	0.1746105
71	0x3e68b473	0.22725086
72	0xbc54b6d6	-0.012983045
73	0x3d3c7479	0.046009514
74	0xbca0bcd8	-0.019621298
75	0x3df9e5ad	0.1220201
76	0x3d79deb9	0.06100342
77	0x3dddaaee	0.10823618
78	0x3ded8087	0.1159678
79	0xbdf265bc	-0.118358105
80	0x3d707715	0.058707315
81	0xbd3b76a9	-0.04576746
82	0x3e1504e1	0.14552642
83	0x3d2562c7	0.040377405
84	0x3d9683b7	0.07349341
85	0x3d8d2668	0.06892091
86	0xbe0ca4a1	-0.13734676
87	0x3e125c20	0.14292955
88	0xbda3f162	-0.080050245
89	0xbb727197	-0.0036993974
90	0x3d58d6c8	0.052939206
91	0x3e0ebf23	0.139401
92	0x3df72335	0.12067262
93	0x3d27c21f	0.040956613
94	0x3e5d9c9b	0.21641771
95	0x3e715679	0.23568143
96	0xbd77299d	-0.06034242
97	0xbd2f9e24	-0.042875424
98	0x3b2035d2	0.0024446142
99	0x3e45dd47	0.19322692
100	0xbda46fb1	-0.08029116
101	0x3df91f85	0.12164215
102	0x3dbcbe46	0.09215979
103	0xbd3f0240	-0.046633005
104	0xbe606060	-0.21911764
105	0xbe116955	-0.14200337
106	0x3d45fd05	0.048337
107	0xbb64ea87	-0.0034929828
108	0x3e06de49	0.13170733
109	0x3e0d0128	0.13769972
110	0x3b554196	0.0032540313
111	0xbd97362a	-0.07383378
112	0x3d808283	0.06274893
113	0xbc9d38da	-0.019192148
114	0x3dab49bc	0.08363673
115	0x3e458ddd	0.19292398
116	0x3d847480	0.06467533
117	0x3e4357ae	0.19076416
118	0x3d63786a	0.055534758
119	0xbd93f110	-0.072237134
120	0x3db1a4b9	0.086739965
121	0x3dc2a689	0.0950442
122	0xbdfae8b2	-0.12251414
123	0xbd68103b	-0.056656104
124	0xbdefc799	-0.11707992
125	0xbdadf61e	-0.08494209
126	0x3d938dea	0.07204802
127	0xbdf62cbc	-0.12020251
128	0x3c57463d	0.013139305
129	0x3e1eae48	0.1549617
130	0x3de16c32	0.11006965
131	0x3dd2d2fa	0.10294147
132	0x3d62b022	0.055343755
133	0xbe270d93	-0.16313772
134	0x3d8d1398	0.06888503
135	0xbd5becac	-0.053692505
136	0x3e239500	0.15974808
137	0x3e43f192	0.1913512
138	0xbd967629	-0.07346756
139	0xbc425dff	-0.011863231
140	0xbd19a2f1	-0.03750891
141	0x3e1c0557	0.15236412
142	0x3e387f1b	0.18017237
143	0x3db60c95	0.088891186
144	0xbd03c67a	-0.032171704
145	0x3e11c59d	0.1423554
146	0x3e232136	0.15930638
147	0xba16bca2	-0.00057501544
148	0xbde7e9c4	-0.11323884
149	0xbdae7bbb	-0.085196935
150	0xbc8e613f	-0.017380355
151	0xbe2314b4	-0.15925866
152	0xbd7e78c5	-0.062126894
153	0xbdfaebbb	-0.12251993
154	0x3e23382d	0.15939398
155	0x3e26a136	0.16272435
156	0x3e0a998d	0.13535137
157	0x3e240721	0.16018344
158	0xbd843a8f	-0.06456482
159	0x3e0bbec3	0.13646989
160	0xbdd5f638	-0.10447353
161	0x3e38c224	0.18042809
162	0x3dcca09c	0.09991571
163	0x3d793c79	0.060848687
164	0x3d17b50d	0.037037898
165	0xbbf0dcac	-0.007350525
166	0x3e1d6d4e	0.15373728
167	0x3e06330d	0.13105412
168	0x3dab161e	0.08353828
169	0x3d6ef2d6	0.058337055
170	0xbd6fc001	-0.05853272
171	0x3d886986	0.06660752
172	0xbde8ec99	-0.113732524
173	0xbdef6783	-0.11689665
174	0x3dd1404f	0.10217344
175	0x3d556f08	0.05210784
176	0x3dc59be7	0.09648877
177	0xbdbf7002	-0.09347536
178	0x3e48b909	0.19601835
179	0x3d801617	0.06254213
180	0xbd8c846d	-0.06861196
181	0x3dd98ebc	0.106229275
182	0x3cada63c	0.02119743
183	0xbd481c28	-0.048854977
184	0xbdc23c64	-0.09484175
185	0xbe18a516	-0.14906725
186	0x3d353d98	0.044248194
187	0x3e36ddc4	0.17858034
188	0x3bb31978	0.0054656826
189	0x3c855200	0.016274452
190	0x3df5676c	0.11982617
191	0x3c9555ee	0.018229451
192	0xbe17eb70	-0.14835906
193	0xbd2eee6d	-0.04270785
194	0x3e435e62	0.19078973
195	0xbd3dc982	-0.04633475
196	0xbd9a81e4	-0.07544306
197	0x3d168371	0.036746446
198	0x3d9513c8	0.072791636
199	0x3db2c148	0.08728272
200	0xbe24475d	-0.16042848
201	0x3dafbba4	0.085807115
202	0x3e296f65	0.165464
203	0xbcc2fb45	-0.023801455
204	0x3dc57820	0.09642053
205	0xbdb4a97e	-0.088213906
206	0x3d9fc692	0.07801546
207	0xbdde353e	-0.10849999
208	0x3d18721b	0.037218194
209	0x3d1041a8	0.035218865
210	0xbd345610	-0.044027388
211	0x3e57f8c2	0.21090987
212	0x3e936b6a	0.28792888
213	0xbe2548eb	-0.16141097
214	0x3ddc60d5	0.10760657
215	0xbbf609fd	-0.007508515
216	0xbdf21ee5	-0.11822299
217	0x3dbe70d6	0.092988655
218	0x3e01af80	0.12664604
219	0xbd8f6f55	-0.07003657
220	0xbd4be5c6	-0.049779676
221	0xbe63315f	-0.22186802
222	0x3d9da4bb	0.076974355
223	0x3df302d1	0.118657716
224	0x3d260264	0.040529624
225	0x3e5279cc	0.20554274
226	0x3bffd59c	0.0078074466
227	0x3bd05a78	0.006358441
228	0x3dd02ce8	0.10164815
229	0x3c4e76ca	0.012601564
230	0x3b121e9e	0.0022296081
231	0x3e5623a4	0.20912033
232	0xbcfd7433	-0.030939197
233	0x397b82c0	0.00023985934
234	0x3cab0974	0.020878531
235	0x3dcaf7c6	0.0991054
236	0xbc8d6526	-0.017260145
237	0xbe5d3614	-0.2160266
238	0x3b775bf5	0.003774402
239	0x3d1b8ea7	0.03797784
240	0xbdaf0a89	-0.08546931
241	0x3e2b0f6b	0.167051
242	0x3d0e5090	0.0347448
243	0x3d8d6795	0.06904522
244	0x3b87c5cc	0.0041434523
245	0xbe2c7b3a	-0.16843882
246	0xbc84fd75	-0.016234139
247	0x3dff191d	0.12455962
248	0xbce0c1d5	-0.027436176
249	0x3d87f4f3	0.06638517
250	0xbd4d73b6	-0.05015918
251	0xbe297caa	-0.16551462
252	0xbe989992	-0.29804665
253	0x3d9362f5	0.07196609
254	0xbd32f2c9	-0.04368857
255	0xbc897a70	-0.016782016

dual_module.1.weight f4 [3, 20, 3, 3]
0	0xbccb29df	-0.02480024
1	0x3d8bb101	0.0682087
2	0xbd166e36	-0.0367262
3	0x3cc531cf	0.024071602
4	0x3e0f6c1f	0.14006089
5	0x3d69d4e2	0.057087786
6	0x3c2cbb69	0.010542729
7	0x3da5029c	0.08057138
8	0xbc217b27	-0.009856022
9	0x3d6d4a5d	0.057932246
10	0xb9e1d73b	-0.00043075703
11	0x3d7403f7	0.059574094
12	0x3b8612c0	0.0040915906
13	0x3c91f566	0.01781721
14	0xbc3065ab	-0.010766427
15	0xbd31ec11	-0.04343802
16	0xbd7d23eb	-0.061801832
17	0xba293221	-0.0006454308
18	0x3b6d8ab9	0.0036246015
19	0xbc8437b9	-0.016139852
20	0x3caef676	0.021357756
21	0xbc327b51	-0.010893659
22	0x3d042c7d	0.03226899
23	0x3d4410ae	0.04786747
24	0xbcab5576	-0.020914774
25	0xbcc1bb86	-0.023648988
26	0x3d9af03a	0.07565351
27	0x3bb64b55	0.0055631795
28	0x3cd14568	0.02554579
29	0x3c8eda83	0.017438179
30	0xbd9b76db	-0.07591029
31	0xbbce3a63	-0.0062935813
32	0x3c06a4a2	0.008217962
33	0x3cabaf1a	0.020957518
34	0xbc97cabd	-0.01852929
35	0xbd76b8d3	-0.060234856
36	0x3c7b5578	0.015340202
37	0x3ce57e23	0.028014248
38	0x3cc32b44	0.023824342
39	0x3d25dc42	0.040493257
40	0x3dd9eebc	0.10641238
41	0x3c1dc6d3	0.009629923
42	0xbc838c0c	-0.01605799
43	0x3d8aae93	0.06771579
44	0x3db88df5	0.09011451
45	0xbd2f5a8d	-0.042810965
46	0x3d0d594b	0.034508985
47	0xbcd7fc80	-0.026365519
48	0xbb2f8242	-0.002678052
49	0x3d0384fa	0.03210924
50	0x3d210c49	0.039318357
51	0x3ccfe5ed	0.025378192
52	0x3d485518	0.048909277
53	0xbc843e60	-0.016143024
54	0xba864283	-0.0010243211
55	0xbce48343	-0.027894622
56	0x3b8f73c7	0.0043778154
57	0x3d452034	0.048126414
58	0x3dc39887	0.09550577
59	0x3d108fe2	0.035293467
60	0x3bfa77c1	0.0076436703
61	0x3d7f2c7b	0.06229828
62	0x3cd81154	0.02637545
63	0x3c648ce5	0.0139496075
64	0x3be1ee96	0.0068948967
65	0x3d97e338	0.074163854
66	0xba80853e	-0.0009805334
67	0x3d05404f	0.032532033
68	0xbdaf4802	-0.08558656
69	0xbce5b537	-0.028040512
70	0x3c7a68e1	0.015283794
71	0x3acf62f7	0.001582234
72	0x3cf96274	0.030442454
73	0x3d3425a6	0.043981217
74	0x3cbbaabe	0.022908565
75	0xbc16bac2	-0.0091998
76	0xbd3aeaaf	-0.045633968
77	0x38fcd1f1	0.00012055401
78	0x3d076a32	0.03306026
79	0xbda64933	-0.081194304
80	0xbd271429	-0.04079071
81	0x3d8cfa7b	0.06883713
82	0xbd36c318	-0.04461965
83	0xbd807b3a	-0.062735036
84	0xbd6ea118	-0.0582591
85	0x38218e60	3.851799e-05
86	0xbcb640d5	-0.022247711
87	0x3bbe2f50	0.00580398
88	0x3c86eefa	0.016471375
89	0x3d8907d5	0.06690947
90	0xbcae9639	-0.021311866
91	0x3cca7e03	0.02471829
92	0xbda2c113	-0.07946982
93	0x3d055c87	0.032558944
94	0x3dd540be	0.10412739
95	0x3e1180bc	0.14209265
96	0xbc520ac5	-0.0128199505
97	0x3c077dea	0.008269766
98	0xbd1633aa	-0.036670364
99	0x3bb32339	0.0054668454
100	0x3d5795fb	0.052633267
101	0xbd78b2f9	-0.060717557
102	0x3b01dd8a	0.0019815885
103	0x3e2d67df	0.16934155
104	0x3c95e69a	0.018298436
105	0xbbd94555	-0.0066305795
106	0x3c950df4	0.01819513
107	0xbd1974d1	-0.03746492
108	0x3b88fe78	0.0041807257
109	0xbd8d3cce	-0.06896363
110	0xbdc514eb	-0.096231304
111	0xbd859d2c	-0.06524119
112	0xbe3e49ab	-0.1858279
113	0xbd36ee04	-0.044660583
114	0xbae845a9	-0.0017720956
115	0xbd02db76	-0.031947576
116	0xbd6a89a2	-0.057260163
117	0xbc07cc2a	-0.008288423
118	0x3d1d78aa	0.038445152
119	0x3d03d71a	0.03218756
120	0x3d1b884a	0.037971772
121	0x3de7f820	0.11326623
122	0x3d5ddcbf	0.054165598
123	0xbd9350ae	-0.07193123
124	0xbcf4e0e2	-0.029892389
125	0xbd85370b	-0.06504639
126	0xbccf6335	-0.02531586
127	0xbd3e0881	-0.04639483
128	0xbc41fc4f	-0.01183994
129	0xbd935ab0	-0.07195032
130	0xbb07c55b	-0.0020716998
131	0xbc0b5f14	-0.008506555
132	0xbd771280	-0.060320377
133	0x3e093880	0.1340046
134	0x3bfeb32f	0.007772825
135	0x3d102f0c	0.035201117
136	0xbd68e330	-0.056857288
137	0xbd16392b	-0.036675613
138	0x3d75474c	0.059882447
139	0x3d84410c	0.06457719
140	0x3da291c4	0.07937959
141	0x3db9a1e4	0.09064081
142	0xbcb37580	-0.021906614
143	0x3c854a77	0.01627086
144	0xbbf4f686	-0.007475677
145	0x3d35e9c3	0.044412386
146	0x3dc82d9d	0.09774325
147	0x3b86abeb	0.0041098497
148	0x3cf851fc	0.03031253
149	0x3ae2f328	0.0017314898
150	0x3c4a7e66	0.012359237
151	0xbcfc1084	-0.030769594
152	0x3d1d9366	0.03847065
153	0xbc0794ad	-0.008275193
154	0x3c883f56	0.016631763
155	0x3ba3e743	0.005001934
156	0xbd663894	-0.0562063
157	0xbd8998d6	-0.06718604
158	0x3bff7d48	0.007796917
159	0xbc67965f	-0.014134972
160	0xbd8f47dd	-0.06996129
161	0xbd5c5600	-0.053792953
162	0x3d9992b4	0.074986845
163	0x3d493a98	0.049128145
164	0xbd161450	-0.036640465
165	0xbb31e93c	-0.0027147075
166	0xbc96b594	-0.01839713
167	0xbd0b434c	-0.033999726
168	0xbd059f34	-0.03262253
169	0xbd737709	-0.059439693
170	0x3d86c72c	0.06580958
171	0x3c81c629	0.01584156
172	0xbbd590cc	-0.0065175053
173	0xbbfc37f3	-0.0076970994
174	0xbd86ee82	-0.065884605
175	0x3db1acfb	0.086755715
176	0xbd779d0d	-0.06045251
177	0xbcbe47f7	-0.023227675
178	0x3d79bd8c	0.06097178
179	0xbdc2ea4d	-0.095173456
180	0x3cdcebab	0.026967844
181	0x3cc0e150	0.023544937
182	0xbc0c4310	-0.008560911
183	0x3d0428a6	0.032265328
184	0x3deeb94f	0.116564386
185	0xbdb77a6f	-0.08958899
186	0xbd6d5ec9	-0.057951722
187	0xbd2e3378	-0.042529553
188	0xbbc1cd4b	-0.0059143654
189	0xbcb88f1c	-0.022529177
190	0x3cbbf61d	0.022944504
191	0x3d0dc57d	0.034612168
192	0x3d2b5fe6	0.041839503
193	0xbd1f3c04	-0.038875595
194	0xbbc29cd4	-0.0059391055
195	0xbdabdfeb	-0.08392318
196	0x3dc87ef2	0.09789838
197	0x3d4655e3	0.04842175
198	0xbca16ab5	-0.019704202
199	0x3d8c8a4f	0.06862318
200	0x3ce21eb4	0.027602531
201	0x3dbe2665	0.09284667
202	0x3e203c26	0.15647945
203	0xbd49200d	-0.04910283
204	0x3ce86482	0.028368238
205	0x3db4c225	0.08826093
206	0xbca3636c	-0.019944869
207	0xbd54c114	-0.051941946
208	0x3c842724	0.016131945
209	0xbd0ceeaa	-0.034407295
210	0xbd9f4c4c	-0.07778224
211	0x3e1aa358	0.15101373
212	0x3c6e702a	0.014553109
213	0x3cf22a06	0.029561054
214	0x3d96fdfa	0.07372661
215	0xbc71f15f	-0.01476702
216	0xbc1e0549	-0.009644815
217	0xbd85a96c	-0.06526455
218	0xbd86ee22	-0.06588389
219	0xbcbe685d	-0.023243124
220	0xbdafcdb3	-0.08584156
221	0xbd98518d	-0.074374296
222	0xbc31448c	-0.0108195655
223	0xbd1ecccf	-0.03876954
224	0xbc601666	-0.013677215
225	0x3b9a55f0	0.0047099516
226	0xbcdd014e	-0.026978161
227	0xbcf63495	-0.03005437
228	0xbd853d4e	-0.065058336
229	0xbe0116e3	-0.12606387
230	0xbda38cbf	-0.079858296
231	0xbd8b2399	-0.06793899
232	0xbd474149	-0.048646245
233	0xbcdd0734	-0.026980974
234	0x3bf585b3	0.007492745
235	0x3d945361	0.07242466
236	0xbd2235fb	-0.03960226
237	0xbd9d63d8	-0.07685059
238	0x3d9c474a	0.07630785
239	0x3db7c68e	0.08973418
240	0xbd1d82be	-0.038454764
241	0xbd8f0600	-0.06983566
242	0x3c903c49	0.017606871
243	0xbc99904b	-0.018745562
244	0xbd7c44b6	-0.061588965
245	0xbc556e9e	-0.0130268615
246	0xbd0b78d7	-0.03405079
247	0x3dcd07e4	0.10011271
248	0x3cdb552a	0.026774008
249	0xbc93b749	-0.018031733
250	0x3cbbb429	0.022913055
251	0x3d50f1dd	0.05101191
252	0x3d10bcb0	0.035336196
253	0x3d963982	0.073351875
254	0xbb8cb479	-0.004293975
255	0xbc476479	-0.012169951
